{"format": "torch", "nodes": [{"name": "transformer", "id": 2315919475272, "class_name": "TransformerModel(\n  (po_embed): Embedding(90, 1)\n  (drop_em): Dropout(p=0.1, inplace=False)\n  (blocks): ModuleList(\n    (0): Block(\n      (attn): Attention(\n        (query_key): Conv1d(31, 496, kernel_size=(1,), stride=(1,))\n        (value): Conv1D()\n        (c_proj): Conv1D()\n        (attn_dropout): Dropout(p=0.1, inplace=False)\n        (resid_dropout): Dropout(p=0.1, inplace=False)\n      )\n      (ln_1): LayerNorm()\n      (mlp): MLP(\n        (c_fc): Conv1D()\n        (c_proj): Conv1D()\n        (act): ReLU()\n        (dropout): Dropout(p=0.1, inplace=False)\n      )\n      (ln_2): LayerNorm()\n    )\n    (1): Block(\n      (attn): Attention(\n        (query_key): Conv1d(31, 496, kernel_size=(1,), stride=(1,))\n        (value): Conv1D()\n        (c_proj): Conv1D()\n        (attn_dropout): Dropout(p=0.1, inplace=False)\n        (resid_dropout): Dropout(p=0.1, inplace=False)\n      )\n      (ln_1): LayerNorm()\n      (mlp): MLP(\n        (c_fc): Conv1D()\n        (c_proj): Conv1D()\n        (act): ReLU()\n        (dropout): Dropout(p=0.1, inplace=False)\n      )\n      (ln_2): LayerNorm()\n    )\n    (2): Block(\n      (attn): Attention(\n        (query_key): Conv1d(31, 496, kernel_size=(1,), stride=(1,))\n        (value): Conv1D()\n        (c_proj): Conv1D()\n        (attn_dropout): Dropout(p=0.1, inplace=False)\n        (resid_dropout): Dropout(p=0.1, inplace=False)\n      )\n      (ln_1): LayerNorm()\n      (mlp): MLP(\n        (c_fc): Conv1D()\n        (c_proj): Conv1D()\n        (act): ReLU()\n        (dropout): Dropout(p=0.1, inplace=False)\n      )\n      (ln_2): LayerNorm()\n    )\n    (3): Block(\n      (attn): Attention(\n        (query_key): Conv1d(31, 496, kernel_size=(1,), stride=(1,))\n        (value): Conv1D()\n        (c_proj): Conv1D()\n        (attn_dropout): Dropout(p=0.1, inplace=False)\n        (resid_dropout): Dropout(p=0.1, inplace=False)\n      )\n      (ln_1): LayerNorm()\n      (mlp): MLP(\n        (c_fc): Conv1D()\n        (c_proj): Conv1D()\n        (act): ReLU()\n        (dropout): Dropout(p=0.1, inplace=False)\n      )\n      (ln_2): LayerNorm()\n    )\n    (4): Block(\n      (attn): Attention(\n        (query_key): Conv1d(31, 496, kernel_size=(1,), stride=(1,))\n        (value): Conv1D()\n        (c_proj): Conv1D()\n        (attn_dropout): Dropout(p=0.1, inplace=False)\n        (resid_dropout): Dropout(p=0.1, inplace=False)\n      )\n      (ln_1): LayerNorm()\n      (mlp): MLP(\n        (c_fc): Conv1D()\n        (c_proj): Conv1D()\n        (act): ReLU()\n        (dropout): Dropout(p=0.1, inplace=False)\n      )\n      (ln_2): LayerNorm()\n    )\n  )\n)", "parameters": [["po_embed.weight", [90, 1]], ["blocks.0.attn.query_key.weight", [496, 31, 1]], ["blocks.0.attn.query_key.bias", [496]], ["blocks.0.attn.value.w", [31, 248]], ["blocks.0.attn.value.b", [248]], ["blocks.0.attn.c_proj.w", [248, 31]], ["blocks.0.attn.c_proj.b", [31]], ["blocks.0.ln_1.g", [31]], ["blocks.0.ln_1.b", [31]], ["blocks.0.mlp.c_fc.w", [31, 124]], ["blocks.0
…
